training/outputs/model.pt (torch, 92580 bytes, 20 tensors)

backbone.0.weight f4 [128, 78]
000000 ca 04 b2 bf 14 f9 82 be d8 4f 0b bd a3 1a a2 3d
       -1.3907712 -0.25580657 -0.03401169 0.07915237
000010 2f 09 1f 3e fe de b8 bd 73 4d 6b bd fb 31 b3 be
       0.15530847 -0.090269074 -0.05744691 -0.3499907
000020 4d 73 99 3e 30 89 94 be e4 b6 b6 be a5 b0 66 bd
       0.2997078 -0.29010916 -0.3568641 -0.056320805
000030 dc 46 09 3e 92 1c 94 be 66 8b 1e be b9 01 1f 3d
       0.13405937 -0.28928047 -0.15482864 0.038820002
000040 5b 5b 01 3f bf dc 62 3b 48 f1 ad be 98 51 70 3e
       0.5053002 0.0034616438 -0.33973145 0.23468626
000050 e9 2c 9b be b0 ab 5a 3d 84 e2 95 3e 2f 32 ac bd
       -0.303077 0.05338639 0.2927438 -0.08408009
000060 87 62 10 be cc f2 b7 be 8b 97 20 3c 7b a3 bf be
       -0.14100085 -0.35927427 0.009801756 -0.37429413
000070 52 e2 e8 be c9 9e 3c be 5a 9f 29 3c c5 fb c4 bd
       -0.4548517 -0.18419947 0.010352934 -0.09618334
000080 93 06 b3 3d 2c 5d 9a 3c d5 af 96 3c cc 34 24 3e
       0.08741488 0.018843256 0.01839439 0.16035765
000090 cd bb 3c bd 32 36 72 be 58 43 ff 3e 52 fe 37 3e
       -0.04607754 -0.23653486 0.49856067 0.17968109
0000a0 e6 88 d0 3e 4e 00 8c 3e 4c 54 d5 bd cb 70 eb bd
       0.40729445 0.27343982 -0.10416469 -0.11496123
0000b0 30 b1 d8 bc 26 01 cb 3d 16 72 7b be c9 12 1e 3f
       -0.026451677 0.099123284 -0.24555239 0.61747414
0000c0 3f 57 23 bf 9d 56 8d bd c2 a9 15 3d ca 38 2d 3f
       -0.63805 -0.06901286 0.036538847 0.6766478
0000d0 69 dc c3 3e 4f ea 95 3e cf 04 aa 3d 1f 03 d1 3d
       0.38254097 0.29280326 0.083016984 0.102056734
0000e0 02 ad 12 3d 20 16 01 bb b3 7a b5 3d e0 c2 a4 bd
       0.035809524 -0.0019697025 0.08861294 -0.08044982
0000f0 60 9c e9 3b 44 46 9e bd 86 b6 e0 3c a8 82 10 3e
       0.007129237 -0.07728246 0.027430784 0.14112341
000100 e0 1b 21 3c 9b c0 0b be 19 e4 9b bf f1 af be bd
       0.009833306 -0.13647692 -1.2178985 -0.09310902
000110 57 29 b6 be d8 38 36 3e 0c 16 33 3d 69 c8 e1 bd
       -0.35578415 0.17795122 0.043722197 -0.11024553
000120 aa 11 db 3d 0a 39 bf be 23 5a 99 3e 32 70 38 3e
       0.106967285 -0.37348205 0.2995158 0.18011549
000130 06 74 c9 3e 21 59 aa 3e 56 07 b7 bb c4 95 45 3d
       0.3934633 0.33271125 -0.0055855913 0.04823853
000140 19 13 a4 c1 a6 01 9b 40 be f9 07 3e 13 99 0d 41
       -20.509325 4.843951 0.13278863 8.849872
000150 b4 7d 0e bd 25 5d 72 3d c0 60 82 bd 98 d5 26 3e
       -0.03478785 0.05917086 -0.0636611 0.16292417
000160 ec c8 47 3e cb 0d 5e bb 56 12 0c bd 04 a3 dc 3d
       0.1951024 -0.0033882733 -0.034197174 0.1077328
000170 85 9d 51 bd 99 22 c2 3d a2 6b 00 bf de 9a ff bd
       -0.051175613 0.09479255 -0.50164235 -0.124807104
000180 d2 1f 99 be b2 d1 d5 3e a0 ed 27 bc 8d f0 67 be
       -0.2990709 0.41761547 -0.010249525 -0.22650357
000190 0c 06 38 be 04 08 56 be f0 84 2c be f5 fe 74 3e
       -0.17971057 -0.20901495 -0.16847587 0.23925383
0001a0 57 83 7f 3e 28 10 03 3e 0d 82 a5 3d 8e 63 4e 3d
       0.24952446 0.12799132 0.08081446 0.05038791
0001b0 33 31 9b bd 46 a7 93 bd b5 cc e7 3d 6c 31 af 3c
       -0.075777434 -0.07209639 0.11318342 0.02138587
0001c0 d1 1b cd 3b b7 c6 9b bc e1 46 00 be e1 5f 42 be
       0.0062594195 -0.019015653 -0.12527038 -0.18981887
0001d0 4f ec d6 3c 60 52 39 be 98 bd 00 be 6b 1a d2 bd
       0.026235728 -0.1809783 -0.12572324 -0.10258945
0001e0 01 cf 6b be 7b 3b 35 bd 7a 96 7d 3c 83 29 cd bd
       -0.23028184 -0.044246178 0.015477771 -0.10017683
0001f0 c6 44 e1 3d 2f fa 87 bc 2a 36 7d bb d0 06 b7 bd
       0.109994456 -0.016598789 -0.003863702 -0.08936846
000200 79 67 92 3d e7 ba 88 be 2b 06 95 3e 02 c7 be bd
       0.07148642 -0.26705095 0.29106268 -0.093153015
000210 d1 b5 1d be c8 ab 4b 3d b4 36 ff bc 7a c7 31 bd
       -0.15401389 0.04972437 -0.031154014 -0.043403126
000220 3e 7c c0 bd 47 89 e6 bd 4e b1 04 3d c0 9e ca bc
       -0.09398697 -0.11256652 0.032395653 -0.024733901
000230 0b 41 a3 c1 34 8e a5 bc c8 2a a0 40 86 00 0d 41
       -20.40676 -0.02020941 5.0052223 8.812628
000240 bc 9d 4d 3d 5b c0 81 bd 46 14 ba c1 37 59 15 3b
       0.050199255 -0.06335517 -23.2599 0.0022788772
000250 58 f9 7d 3c 4f d9 93 bc da f5 8c 3c 71 fa ce bd
       0.015501343 -0.018047957 0.017207075 -0.10106362
000260 bb ca 08 3d 6b 59 1f be ee a6 ea 3c c6 7d b9 3d
       0.033396464 -0.15561454 0.028644051 0.090571925
000270 a3 d5 14 bf 4f 37 ef 3d da 36 01 3d 4c 34 aa bd
       -0.58138484 0.11680471 0.03154645 -0.08310756
000280 6e 44 a5 3e 3b f6 15 be b4 b5 1b 3e 56 ff 70 ba
       0.3227877 -0.1464471 0.15206033 -0.00091933215
000290 6e fa 3f bc be 1d 91 bc b6 aa 37 3e 11 76 9a 3d
       -0.011717422 -0.017714377 0.17936215 0.07542051
0002a0 22 90 2a 3d 3b fa f8 be 26 8f cc be a4 1b e0 bf
       0.041641362 -0.4862841 -0.39952964 -1.7508435
0002b0 e3 b4 4d 3f 52 94 5d 3e 67 c6 0e 3e 17 bd 51 bf
       0.80354136 0.21638611 0.13942872 -0.81929153
0002c0 72 bf 3f be 6e f8 69 3f 6b 20 80 3f ba b9 5b bd
       -0.18725374 0.913947 1.0009893 -0.05364392
0002d0 20 02 11 be 47 ef 9f bd 5b 33 da bd a3 7c 9e be
       -0.14160967 -0.078093104 -0.106543265 -0.30954465
0002e0 3e 21 7d bc 0f 24 03 3e 14 f1 87 3b 0c fe a2 bc
       -0.01544982 0.12806724 0.004148612 -0.01989653
0002f0 90 9e f5 bc 78 76 46 3c 6d a6 1a bd 18 b0 ab bc
       -0.029982835 0.012113206 -0.037756372 -0.020957991
000300 18 9c a5 be 53 17 df bf 94 2f 80 bf 34 7c 12 3e
       -0.32345653 -1.7428993 -1.001452 0.14305192
000310 7c 97 18 bd c4 1b 89 be 7c 29 2a bf 7e 89 f1 3d
       -0.03725384 -0.26778996 -0.6646955 0.11793803
000320 33 6b 10 be 71 ea 1e be 77 f6 5d 3d bc 78 71 bf
       -0.14103393 -0.1551912 0.054190125 -0.9432485
000330 97 42 0c 3f da ce 8b bd 9f 10 3b be 47 b3 b8 be
       0.5478911 -0.06826563 -0.18268059 -0.36074278
000340 50 10 80 be 7d 1f ac bc d2 70 b5 3d 34 66 0d 3d
       -0.25012445 -0.021011109 0.088594094 0.034521297
000350 63 fa cc bd 3c 73 8b bd 78 62 92 bc ab 51 e0 3d
       -0.10008695 -0.068090886 -0.01786922 0.10953077
000360 bc 2d 86 3c 14 36 f0 bc 02 62 2a 3d f1 fa 34 3e
       0.01637923 -0.029322661 0.041597374 0.17673852
000370 75 ed c2 bd ae d6 b5 bd 4f 51 f7 bd 69 bf 4e 3e
       -0.095179476 -0.088788375 -0.12076055 0.20190205
000380 e3 de 4d be be 01 cb 3d 18 d5 3f 3e e6 33 82 be
       -0.20104556 0.09912442 0.18733633 -0.2543022
000390 ad 4b 0a be 0d eb 46 bd 9b f4 63 bf 12 61 8a be
       -0.1350543 -0.048564006 -0.89045113 -0.27027184
0003a0 2e 45 46 bf 7a a7 0a bf e0 ce f5 3e c8 22 b6 3e
       -0.7744931 -0.541618 0.48009396 0.3557341
0003b0 98 c8 01 be b6 65 c1 3d 20 2b 1f bc 5e 2d 9b 3d
       -0.12674177 0.09443228 -0.009714872 0.075770125
0003c0 d8 1a 8d 3c 71 48 28 3f 10 81 53 3e e0 cd 91 3e
       0.017224714 0.65735537 0.20654702 0.28477383
0003d0 a6 72 a7 3e 8e d9 8a 3b f9 80 0f be 88 c5 66 be
       0.32704657 0.0042373603 -0.14014043 -0.2253629
0003e0 80 e1 f1 be b7 98 a4 3f 6d 1a 72 bf 5a e3 98 bf
       -0.47242355 1.2859105 -0.9457157 -1.1944382
0003f0 05 4b 97 be 97 31 0c 3f 31 cb 57 3e b8 02 0e bf
       -0.29549423 0.5476317 0.21073605 -0.554729

backbone.0.bias f4 [128]
000000 65 30 94 bc 86 c5 0f 3e 70 bb db bd 05 8c 8f bd
       -0.018089483 0.14040193 -0.1072911 -0.070091285
000010 b6 c8 83 3d 33 1c 29 be 7e 16 7c 3d 73 09 21 3d
       0.06434767 -0.16514663 0.061544888 0.039315652
000020 98 84 9a 3c ad 97 d6 3d 58 2b bd 3e d6 58 6b 3c
       0.018862054 0.104781486 0.3694713 0.014364442
000030 2a 85 01 3e 89 71 a0 bd 11 04 bd 3d 02 d8 9f 3c
       0.12648454 -0.07834155 0.09229291 0.01951218
000040 1c e8 d7 ba 92 d8 35 bc d9 61 50 be b7 d5 3c be
       -0.0016472372 -0.011098998 -0.20349826 -0.184409
000050 f1 dd 80 3e bd 82 e7 bc 48 d6 04 be 12 f8 cb 3d
       0.25169328 -0.028260583 -0.12972367 0.09959425
000060 10 5e 52 bd 95 76 31 3d ab 0c 0b bc 56 34 c9 3b
       -0.051359236 0.04332598 -0.008486907 0.006140272
000070 82 c2 c4 3d 02 c0 c9 bd 79 6f 08 3e 8f 81 40 bd
       0.09607412 -0.09851076 0.13323773 -0.046998557
000080 79 4c 80 3c db b1 e9 bd 25 a4 1c 3c 77 1c 09 3d
       0.015661465 -0.11410876 0.0095606195 0.03347441
000090 c8 27 10 bd a5 54 99 bc 3c 7a bd 3d 1f 22 62 3d
       -0.03519419 -0.01871712 0.0925183 0.05520832
0000a0 3b e3 d7 bd 34 29 01 3e 7a 7a 85 3d 7f bc 41 3e
       -0.10541388 0.12613374 0.06517501 0.18919562
0000b0 21 63 88 3b f5 53 16 be be c1 b6 bc 4c ae ee bc
       0.0041622077 -0.14680465 -0.02230918 -0.029135846
0000c0 30 26 88 3d 91 13 4b 3d c0 66 4e 3d 53 85 34 bd
       0.06647909 0.049579207 0.05039096 -0.04407246
0000d0 3c 75 0c 3d e8 b6 93 bc 17 23 64 3d 6e 8d 81 3d
       0.03429149 -0.018031552 0.055697527 0.06325804
0000e0 53 e3 c0 3d 03 b8 ab bd 88 0a ea 3d f1 8e 67 bd
       0.09418359 -0.08384707 0.1142779 -0.056532804
0000f0 8e ed 06 3e 36 82 a2 3d 8c 0c 1e be 9d b7 a5 bd
       0.13176557 0.07934992 -0.15434474 -0.08091662
000100 41 9c b8 bd 89 6c 53 bd b4 b8 17 be 37 76 84 3d
       -0.09014178 -0.05161718 -0.14816552 0.0646786
000110 b4 01 c7 bd 45 a1 78 bd 22 d9 94 3c c3 28 96 bd
       -0.09717122 -0.060700674 0.018169943 -0.073319934
000120 d3 6d 7b 3d c8 01 2f 3e b5 aa 0b be 1c 03 95 3d
       0.061384033 0.17090523 -0.13639338 0.07275984
000130 40 f3 b8 bd 83 f9 c7 3d 66 2b 8f bd bc 74 97 bd
       -0.09030771 0.097643875 -0.069906995 -0.07395312
000140 02 5d 5c 3d 24 cb 32 3d 15 aa 81 3d 64 77 ad 3d
       0.053799637 0.04365076 0.06331269 0.084700376
000150 78 01 0b b8 9a 58 df bd 65 5d 12 be 7d 32 06 bd
       -3.314155e-05 -0.10905571 -0.1429344 -0.032762993
000160 e3 cd c3 bd a3 52 96 3d ed 99 19 bd 4e f9 da bc
       -0.09560754 0.073399805 -0.03750031 -0.026730206
000170 a4 10 d0 bd b7 c6 7e 3d 3b e2 e7 bd 7c cf 06 be
       -0.10159424 0.062201228 -0.11322447 -0.13165087
000180 55 3b b4 bd 60 ac ca bc 3e 47 81 3b 3b 4c 96 bd
       -0.08800379 -0.024740398 0.0039452603 -0.073387586
000190 bb 50 6e bd f2 2a f4 bd 5a 3a 18 3d 08 2e 09 3d
       -0.05818246 -0.11922254 0.037165023 0.033491164
0001a0 f4 f3 5a 3d 27 74 b2 bd 31 08 85 3d 06 a1 66 3d
       0.053455308 -0.087135606 0.06495703 0.056305908
0001b0 40 f8 8a bd bb 6b 98 bd 3b 98 7c bd 99 72 05 3d
       -0.06785631 -0.07442423 -0.061668616 0.032579992
0001c0 20 b6 74 bd 91 fb 43 3e cf 97 93 3d 19 dc a8 3d
       -0.059744 0.19138934 0.072066896 0.08245105
0001d0 20 1d 16 bc 16 79 6b bb 80 ee 9c bd 7d a5 e6 3d
       -0.009162217 -0.0035930327 -0.07662678 0.11262033
0001e0 36 23 34 bc a9 d9 34 bd 46 9a 90 3d 55 c4 65 3d
       -0.010994723 -0.04415289 0.07060675 0.05609544
0001f0 14 da 73 3d ee bc 8f 3d 5f 24 54 3c 38 14 b0 bd
       0.059534147 0.07018457 0.012948125 -0.085976064

backbone.1.weight f4 [128]
000000 f6 54 85 3f a1 d3 e1 3f 49 f1 8e 3f 8c 55 65 3f
       1.0416553 1.7642709 1.1167384 0.8958366
000010 a8 af 48 40 b4 ca 92 3f 63 40 70 3f b4 8b 3f 3f
       3.1357212 1.146811 0.93848246 0.74822545
000020 9c d1 9c 3f 59 05 83 3f 1f a3 d7 3f 43 03 34 3f
       1.2251468 1.0236007 1.6846656 0.70317477
000030 16 25 e2 3f cb 40 6f 3f 5f ae fd 3f c8 91 9b 3f
       1.7667568 0.9345824 1.9818839 1.2153864
000040 f8 e3 92 3f 49 ec 09 40 40 b6 85 3f 6c 42 84 3f
       1.147582 2.1550467 1.0446243 1.033277
000050 f3 ed a6 3f ac fc 87 3f ab df 07 3f 04 bb 88 3f
       1.3041366 1.0623984 0.53075665 1.0682073
000060 71 1b 91 3f b8 f4 14 40 e0 15 88 3f 74 c0 98 3f
       1.13365 2.3274364 1.0631676 1.1933732
000070 1c bf a5 3f 1c 05 bd 3f d5 e1 7b 3f f4 f4 b1 3f
       1.2948947 1.4767184 0.9839147 1.3902879
000080 ec 78 87 3f 11 69 73 3f cb 27 7a 3f d3 2b 9d 3f
       1.0583777 0.95082194 0.9771697 1.2278999
000090 56 b0 9c 3f 5e 4c 88 3f 28 f9 8c 3f d5 4d 1d 40
       1.2241313 1.0648305 1.1013536 2.4578755
0000a0 34 67 57 3f c6 c9 b1 3f f9 0d cc 3f 4b ed 7f 3f
       0.8414185 1.3889701 1.5941764 0.99971455
0000b0 dd 37 13 3f ec cc d8 3f 4c f3 c6 3f 2b d3 92 3f
       0.57507116 1.6937537 1.5542998 1.1470693
0000c0 b0 ff 74 3f ea e9 79 3f f3 01 c6 3f ed 3f c3 3f
       0.9570265 0.9762255 1.5469345 1.5253884
0000d0 9d 97 98 3f 66 d6 55 3f ba fd 62 3f 6f 48 80 3f
       1.1921269 0.8353027 0.88668406 1.0022105
0000e0 f3 ca 7f 3f 49 4c 94 3f 2a c2 99 3f 9a 73 e7 3f
       0.9991905 1.158578 1.2012379 1.8082154
0000f0 31 f6 5c 3f 79 49 74 3f f7 7f 60 3f 44 a8 e7 3f
       0.8631316 0.9542461 0.8769526 1.8098226
000100 0c df 3f 3f f5 9f c0 3f 67 02 a0 3f 8c 09 33 3f
       0.7494972 1.5048815 1.2500733 0.6993644
000110 42 3a 47 3f 80 3d 92 3f 48 8b 3f 3f f3 aa 76 3f
       0.7782327 1.1425018 0.748219 0.963546
000120 99 e2 06 40 10 03 8e 3f 23 b6 26 3f f6 31 7d 3f
       2.1075804 1.1094685 0.6512167 0.9890436
000130 04 be c9 3f 9b 51 46 3f 6b f7 ba 3f d2 52 97 3f
       1.5761113 0.7746827 1.4606756 1.182215
000140 bc cf 97 3f 1a 70 26 3f 43 af 9f 3f 22 e3 81 3f
       1.186027 0.65014803 1.2475361 1.014744
000150 7a b1 b0 3f 09 ab 84 3f 11 f1 16 40 34 1f 65 3f
       1.3804162 1.0364696 2.3584635 0.8950074
000160 a1 50 05 40 6a 19 85 3f 06 2c 6d 3f 28 61 de 3f
       2.0830462 1.0398381 0.926453 1.73734
000170 f7 2f 7a 3f c6 ba 74 3f df cc 73 3f 13 85 4e 3f
       0.9772944 0.95597494 0.95234483 0.80671805
000180 df 07 89 3f 7c ee 9d 3f 11 0d 50 3f 7c 65 8b 3f
       1.0705527 1.2338405 0.8126994 1.0890346
000190 58 af c9 3f d4 9b 10 40 c2 74 80 3f 01 c9 ae 3f
       1.5756636 2.259511 1.0035632 1.3655092
0001a0 6a a9 79 3f 32 ac 01 40 7a 74 a8 3f d9 ff 71 3f
       0.9752413 2.026135 1.3160546 0.9453102
0001b0 4d 64 b3 3f 3c e8 ca 3f 84 b6 67 3f 8a 72 c4 3f
       1.4014984 1.5852122 0.9051287 1.5347455
0001c0 51 e2 38 3f d1 02 b2 3f c3 e7 82 3f b9 c0 d9 3f
       0.7222033 1.390711 1.0226978 1.7011939
0001d0 39 32 c7 3f da 0f 9f 3f 95 c4 96 3f e9 b8 82 3f
       1.5562202 1.2426713 1.1778742 1.021268
0001e0 62 14 a4 3f 26 93 40 3f f3 7d d3 3f 17 4e 2f 3f
       1.281872 0.7522453 1.6522812 0.6847853
0001f0 1c 14 6f 3f 1f 67 b2 3f 07 a9 49 3f 04 25 c1 3f
       0.9339006 1.393772 0.7877354 1.5089421

backbone.1.bias f4 [128]
000000 cc 44 4e bf bb c6 23 bf 5b 10 88 be aa 1b 7b 3d
       -0.80573726 -0.63975114 -0.26574978 0.06130568
000010 73 62 a2 be e3 69 25 be 52 1c 23 bf 46 0f 43 be
       -0.31715736 -0.16153674 -0.6371509 -0.19048795
000020 59 31 3e bf 70 47 10 bf 26 91 06 bf 43 ae e1 be
       -0.7429405 -0.56359005 -0.5256523 -0.44078264
000030 78 6e b1 be 94 a1 d4 be 27 dd 83 be 7d 43 40 bf
       -0.34654593 -0.41529524 -0.25754663 -0.7510298
000040 73 ee f5 be c4 3c 61 be 85 49 a6 be 69 84 c4 be
       -0.48033485 -0.21995836 -0.32477966 -0.3838227
000050 6c d8 32 bf 7f 47 ca be f1 1f 4e bd ca 54 52 bf
       -0.69861484 -0.39507672 -0.05032343 -0.8216063
000060 3c c1 f3 be 23 94 8f be 1c 38 4c be 95 59 02 bf
       -0.47608364 -0.28042707 -0.19943279 -0.5091794
000070 a1 7a e7 be 43 d1 8b be 6e ee 00 bf 3c 3b d2 be
       -0.45210746 -0.27308092 -0.50363815 -0.41060817
000080 a6 94 f3 be 40 0f 9f be 0a 9e cc be 16 a1 2e bf
       -0.47574347 -0.31066322 -0.39964324 -0.6821455
000090 bc e7 ac be 1e 53 c3 be bd f7 33 bf 28 d5 83 be
       -0.3377055 -0.3814935 -0.70299894 -0.25748563
0000a0 c6 60 ff be b8 92 10 bf 35 ac 0d bf 42 83 e8 be
       -0.4987852 -0.56473875 -0.5534089 -0.45412642
0000b0 11 3b 03 bd 3e 20 53 be 56 1c 50 be 01 37 85 be
       -0.032038752 -0.20617768 -0.2032331 -0.26018527
0000c0 3b ac 49 bf 3f 95 d7 bd 6f 1e 05 bf 5c 69 18 be
       -0.7877843 -0.10526513 -0.5199956 -0.14883941
0000d0 2b 16 3d bf 16 08 a5 be 9e a6 84 be d3 fd 2e 3e
       -0.7386195 -0.32232732 -0.2590837 0.17089014
0000e0 35 63 20 bf 1e 0f 1e bf b3 20 d0 be ee ed a1 be
       -0.6265138 -0.61741817 -0.40649948 -0.31626838
0000f0 4d 11 6d be fd 75 1e bf df 24 04 bf 25 52 b1 be
       -0.23151131 -0.61898786 -0.5161876 -0.34632984
000100 07 44 b8 be 7d fa 68 be 47 55 ae be 9d 09 ed be
       -0.359894 -0.22751804 -0.34049436 -0.46296397
000110 d3 69 b5 be 41 29 21 bf 40 8d 24 bf 79 34 dc be
       -0.354323 -0.62953573 -0.6427803 -0.43008783
000120 52 92 db be ca 40 df be ed 5f 3d bf 9c fa d9 be
       -0.4288507 -0.43604118 -0.73974496 -0.42574012
000130 a1 76 4d be ed af 17 bf c5 38 3c be 45 02 c1 be
       -0.20064785 -0.59252816 -0.18381031 -0.37697044
000140 10 ff d8 be cd 2e fe be 0e 5d a7 be f2 37 0b bf
       -0.42382097 -0.4964508 -0.32688183 -0.5438224
000150 c7 d0 3d bf 34 22 48 bf bf 1a cf be c0 f1 10 bf
       -0.74146694 -0.7817719 -0.40450093 -0.5661888
000160 eb ef f4 bd da 9d 6a be 54 f4 30 bf f2 62 25 3d
       -0.11959823 -0.22911778 -0.69122815 0.040377565
000170 91 d0 ef be 91 84 a0 be c9 fc 81 be 0a 09 94 be
       -0.4683881 -0.3135114 -0.25388172 -0.28913146
000180 b5 fe 8e be 57 9f eb be c1 e3 d2 bf 44 d2 17 bf
       -0.279287 -0.46020004 -1.6475755 -0.59305215
000190 03 71 b8 be fb 68 a7 be 53 c4 05 bf 6e 97 46 bf
       -0.3602372 -0.3269728 -0.5225269 -0.77574813
0001a0 ba d3 e6 be 07 e4 5e be d2 fa 97 be 53 9e 9c bf
       -0.4508341 -0.21766673 -0.29683548 -1.2235817
0001b0 86 cb cb be 96 ce 4a bf 15 84 02 bf f1 27 dc be
       -0.39803714 -0.79221475 -0.5098279 -0.42999223
0001c0 97 f6 d6 be f1 50 fa be 32 22 a8 be b2 36 f7 be
       -0.41985008 -0.48889878 -0.3283859 -0.48283917
0001d0 8f 72 16 be f9 59 6f bf d7 0d d9 be 24 e2 df be
       -0.14692138 -0.9349666 -0.4239337 -0.4372722
0001e0 e7 97 ef be 4b 8f 9a be 2d 18 d7 be 5b ff 60 bf
       -0.4679558 -0.3018745 -0.42010632 -0.8788964
0001f0 01 5f a7 be c4 31 33 bf 7c 16 35 be be 0b b1 be
       -0.3268967 -0.6999781 -0.17684358 -0.3457927

backbone.1.running_mean f4 [128]
000000 c4 38 4d bd 49 e4 a1 3e 4e 18 73 bd fc ea 89 bd
       -0.050102964 0.3161948 -0.05934935 -0.06734273
000010 60 43 25 3e 7f 2a 07 be 3a f7 1e 3e 38 ce e4 bd
       0.16138983 -0.13199805 0.15523997 -0.111721456
000020 0e 96 de bc 7c 2c 07 bd 2e 9f 05 3f 0e 07 e3 3d
       -0.027171161 -0.033001408 0.52196014 0.1108533
000030 42 9b 51 3e 97 ea 5b be 85 74 08 3e bd 96 a6 3d
       0.20469382 -0.21476208 0.13325699 0.0813422
000040 52 a1 5d 3e 13 b4 cd 3d 06 1c 16 be 32 1c 6c be
       0.2164357 0.10044112 -0.14659128 -0.2305763
000050 82 a3 4d 3e 23 4c 11 bd 4c fd 25 be de 0e 89 3d
       0.20081905 -0.035473 -0.16209906 0.06692289
000060 52 a2 ba 3b 8d 1b 8f 3d 6c 27 a5 3d dd fa 08 3d
       0.0056956196 0.06987677 0.0806416 0.033442367
000070 f3 cd b8 3d d9 a6 67 be af 65 76 3e 46 b7 35 bd
       0.09023657 -0.22622241 0.24062227 -0.044364236
000080 1e c8 20 be ea 78 8c bc 56 3e c3 3c e4 04 6c bd
       -0.15701339 -0.0171475 0.023833435 -0.05762185
000090 a7 8c 4c 3e 6a 5d 36 bc 31 a2 98 3d 87 0c 13 3d
       0.1997553 -0.01113067 0.074528106 0.03590062
0000a0 21 7c 70 be d5 d1 93 3d 20 b9 18 bb 8e 32 05 3e
       -0.23484851 0.07217757 -0.0023303702 0.13007566
0000b0 c8 25 a8 3c a1 bb 09 be 03 ba 38 bc d0 44 31 3c
       0.020525828 -0.13450481 -0.011274817 0.010819629
0000c0 ea 23 96 3d 9d 73 a0 3c fc bd e5 bc 7b 30 d5 bd
       0.07331069 0.019586379 -0.028044693 -0.104096375
0000d0 92 96 8f bd 38 ca cd 3b 40 56 03 3e ee b7 c4 3d
       -0.07011141 0.00628021 0.1282587 0.09605394
0000e0 de 91 6e 3e ea ea a2 3c d5 de f6 3d 88 20 40 bb
       0.23297831 0.019887406 0.120542206 -0.0029316265
0000f0 2f b8 93 3e e6 a9 89 3e 7e c2 3c be 40 37 02 be
       0.28851458 0.26887435 -0.18433568 -0.12716389
000100 98 f9 c8 bc 94 44 1a 3c a9 ff 57 bd 3c 43 a6 3c
       -0.024533078 0.009415764 -0.05273405 0.020295732
000110 fd e1 70 3c 14 63 12 be 7f fd 13 3d e0 c4 b7 3b
       0.014702317 -0.14295608 0.036130425 0.005608186
000120 e0 e0 81 3d 48 6e 25 3e 95 c2 a0 bd 23 71 f3 3c
       0.063417196 0.1615535 -0.078496136 0.029717034
000130 03 f0 46 bd 4f e3 65 3e e9 e9 43 bd 23 ec 26 be
       -0.048568737 0.22449993 -0.047830496 -0.16301017
000140 0a 32 a2 3d 01 f2 86 3d 7a 6c ab 3d 33 93 70 3e
       0.079197004 0.06589127 0.083703 0.23493652
000150 f8 25 88 bd 1f ec 16 be 6f 41 d5 bd 23 e7 20 be
       -0.06647867 -0.1473851 -0.10412871 -0.15713172
000160 c0 31 e6 bd b7 0e c0 3d 4e e5 4c 3e 20 63 d0 3d
       -0.11239958 0.09377807 0.20009348 0.101751566
000170 bf 97 8b 3c 4b bb eb 3d 35 29 41 be f0 8a ea bd
       0.017040132 0.11510333 -0.18863375 -0.114522815
000180 db c4 1f be a8 9d 1a 3d 68 b0 60 bd 88 c5 74 bc
       -0.15602438 0.03774801 -0.054855734 -0.014939673
000190 b9 90 12 bd a7 4e 14 be b3 9e c2 bd 97 fd 98 3d
       -0.03578255 -0.14483128 -0.09502926 0.074702434
0001a0 21 18 d3 3d 88 ff 09 3d 30 cf d5 bd d3 64 b4 3b
       0.103073366 0.03369096 -0.104399085 0.0055051832
0001b0 51 e2 87 bd f1 7d 12 be 7d 53 0b 3c 75 ef e6 3c
       -0.06634963 -0.14305855 0.008503792 0.028190354
0001c0 14 c3 05 bd e0 90 47 3e 72 1a 8d 3d a3 65 c8 3d
       -0.032656744 0.19488859 0.0688981 0.09785011
0001d0 e3 6b d5 bd 68 1a d1 bd 9d b4 5f bd 88 3d a4 3c
       -0.104209684 -0.10210115 -0.054615606 0.020048872
0001e0 68 5f 3a 3d 5c b5 07 be ce 51 7e bd 72 50 c4 bd
       0.045501143 -0.13252777 -0.062089734 -0.09585656
0001f0 e4 75 36 3d 52 70 2d 3e e2 8f 14 3e bc a1 8d bd
       0.044546023 0.16937378 0.14508012 -0.06915614

backbone.1.running_var f4 [128]
000000 c3 99 e1 40 84 34 11 40 32 99 6c 41 1e 9c 84 41
       7.0500197 2.2688303 14.787401 16.57623
000010 cd df 12 42 7e 2b 8e 42 da a8 aa 41 35 ce f5 41
       36.718555 71.084946 21.332447 30.725687
000020 84 ab 78 42 09 cd 94 41 cb 58 65 40 35 e1 f0 41
       62.167496 18.600115 3.5835445 30.109964
000030 2e 93 bf 42 5c d0 03 42 36 04 fc 41 1a 95 d7 40
       95.78746 32.953476 31.502056 6.736951
000040 28 79 1d 42 5d 23 5f 42 6c 79 13 42 23 15 42 42
       39.368317 55.784534 36.868576 48.52064
000050 96 3d 95 42 ef 48 09 42 80 55 ab 41 57 c9 21 41
       74.620285 34.321224 21.416748 10.111655
000060 17 18 64 41 5a 4e d5 41 8e 1a c4 41 a5 42 75 41
       14.255881 26.663258 24.512966 15.328771
000070 81 1e 31 41 64 51 62 42 07 98 4d 42 24 83 19 42
       11.069947 56.579483 51.398464 38.378067
000080 08 26 df 41 5e c8 d7 41 c2 e7 ca 42 48 61 04 43
       27.89357 26.972836 101.45265 132.38
000090 55 05 2d 42 3d ec 4f 41 f2 c1 71 42 3a 59 28 42
       43.255207 12.995175 60.4394 42.087135
0000a0 a0 86 e6 41 66 34 98 42 40 07 d4 42 8f df 20 42
       28.815735 76.10234 106.01416 40.21832
0000b0 ca 9f 5b 41 9a 15 a0 41 a4 2e bc 40 50 02 22 42
       13.726511 20.010548 5.8806934 40.50226
0000c0 68 40 2f 42 eb 62 10 41 34 d4 f1 42 9d 65 1a 42
       43.812897 9.02415 120.91446 38.59923
0000d0 68 13 91 41 f5 eb 8d 41 61 4a ba 41 db ab 4c 41
       18.134476 17.740213 23.286318 12.791957
0000e0 9d 90 5f 41 e8 af 35 42 88 6a ae 40 b4 0e 42 42
       13.972806 45.421783 5.4505043 48.51436
0000f0 e2 e9 46 42 8c 60 d6 41 b5 75 3e 41 15 c9 34 42
       49.7284 26.797142 11.903737 45.19637
000100 2d cf 1b 42 77 87 9c 42 b0 29 ad 41 f3 9b 70 42
       38.95232 78.26458 21.645355 60.152294
000110 1b e0 b0 41 cd 3a 9c 42 f5 f5 4b 41 8b 53 bf 41
       22.109426 78.114845 12.747548 23.915792
000120 d7 0a 1d 42 0b 04 70 41 b7 28 b2 42 10 09 8f 41
       39.260586 15.000987 89.07952 17.879425
000130 7d ef 74 42 22 dc 7b 41 ac e3 50 42 f4 e7 b1 41
       61.233875 15.741243 52.222336 22.238258
000140 d3 41 7d 42 4a 6f be 41 7f 83 04 42 0e 74 d1 41
       63.31428 23.80434 33.128414 26.181667
000150 d6 1d be 42 81 21 3e 41 97 67 08 42 4b 1f b2 41
       95.05827 11.88318 34.101162 22.26528
000160 0a ff 3e 42 e2 94 8b 42 16 03 1e 42 5c 84 8d 42
       47.74906 69.79079 39.503014 70.758514
000170 1d 8f 65 42 87 b6 37 41 58 36 81 42 ed 22 21 42
       57.38976 11.482062 64.60614 40.284107
000180 f2 63 12 41 df 5a 2d 42 2a 0a ec 40 b6 d3 98 41
       9.149401 43.33874 7.3762407 19.103374
000190 f4 ef e3 41 1c e2 3f 42 e8 01 1b 42 8a b8 4b 42
       28.492165 47.97081 38.75186 50.930214
0001a0 21 7a 4c 42 6c ce 1d 42 6c 33 a1 42 9f 22 81 40
       51.119267 39.451584 80.60043 4.035476
0001b0 42 02 fe 41 17 2d 86 42 d3 57 2f 42 e4 67 3a 41
       31.751102 67.088066 43.835766 11.650364
0001c0 38 39 22 41 3a 96 8f 42 9c 88 99 42 9a 38 64 42
       10.138969 71.79341 76.766815 57.055275
0001d0 6a 09 fd 40 92 9c b0 42 25 cf 99 41 2e 2a d7 41
       7.907399 88.3058 19.226145 26.895596
0001e0 6f 3d 85 42 85 de 0b 41 23 9f 14 42 a8 d5 9b 41
       66.61999 8.741826 37.155407 19.479324
0001f0 b3 87 92 40 27 29 80 41 36 f9 1b 42 65 f4 d5 40
       4.579065 16.020094 38.99337 6.6860833

backbone.4.weight f4 [64, 128]
000000 dc 86 b3 be ba 2e 14 3f 77 f2 31 be 1b 7a a3 be
       -0.35063827 0.578838 -0.17377649 -0.31929097
000010 34 71 fe bd a3 4e 71 bf 93 ab 47 3e 08 d4 3c bf
       -0.124239355 -0.94260615 0.19499044 -0.73761034
000020 9b d0 db be 19 d1 99 be 17 34 cb 3c df 9d 06 3f
       -0.4293259 -0.3004234 0.024805112 0.5258464
000030 0f d3 93 bf 0e 68 4c bf 48 91 33 3e 06 11 b1 3f
       -1.1548785 -0.79846275 0.17535889 1.383332
000040 80 e6 51 3f bd 65 07 3e e4 d7 5c 3e 2d 1b e8 3e
       0.8199234 0.13222404 0.2156673 0.45333233
000050 cb 4d 4b 3e e4 7e 89 3f 28 a1 49 bf c5 55 0c bf
       0.19853894 1.0741849 -0.7876153 -0.54818374
000060 49 ae a2 be fc dd 79 3e 8d 2b 2a 3d 29 ae 61 be
       -0.31773594 0.24401087 0.04154544 -0.22039093
000070 45 e1 86 3e 63 db 2b be 3d 9b ff 3e c2 31 5d bf
       0.26343742 -0.16782908 0.49923125 -0.8640405
000080 44 c4 24 bf 4a f1 85 3e 04 96 fc 3f c7 6c 6b 3e
       -0.6436198 0.2616065 1.9733281 0.22990714
000090 bf de 10 3f b5 3c e5 bd a1 d6 34 3e 0b 01 0f bf
       0.56589884 -0.111932196 0.1766 -0.55860966
0000a0 9e 4f 90 be 68 cf 94 3f 2e f0 c0 3d f5 86 16 3e
       -0.28185743 1.1625795 0.09420811 0.1469992
0000b0 b3 3b 0d bf 12 46 32 3c 0c 46 8d 3d 9d 6c 1c bf
       -0.5516922 0.010880964 0.06898126 -0.6110323
0000c0 6e 85 a3 bf c3 e1 99 be a5 c0 42 3f 58 17 d3 be
       -1.2775095 -0.30055055 0.760752 -0.41228747
0000d0 26 40 b9 3f 6d c8 c4 bf ea aa 88 3c 68 dd d7 bc
       1.4472702 -1.5373665 0.01668306 -0.026350692
0000e0 3f 9a dd 3d a9 e5 bc 3d a5 f3 b0 be f4 07 ab bd
       0.10820436 0.09223492 -0.34560886 -0.08351126
0000f0 b3 c7 72 3d a1 ac 87 3e 5c e0 36 3e 83 ed 37 bf
       0.05927248 0.26498893 0.17859024 -0.7184679
000100 fc 95 bd 3e 09 aa 9e bf cd 29 89 be 50 e3 9b be
       0.37028491 -1.2395641 -0.26789704 -0.30446863
000110 a0 e9 6b 3e 46 47 c9 3e 38 14 56 bf 22 0b 17 3e
       0.2303834 0.3931219 -0.836246 0.1475034
000120 9f 3e 04 3f 7d 83 a8 be 7f 62 8c bf 46 f1 47 bf
       0.5165805 -0.32912818 -1.0967559 -0.7810253
000130 16 c9 d3 be 56 55 13 3f 89 24 05 bf cb 99 1b bf
       -0.41364354 0.5755209 -0.52008873 -0.60781544
000140 a7 0f 12 3f 20 57 e3 be c0 10 93 bf 80 a5 45 3e
       0.57055134 -0.4440241 -1.1489487 0.19301414
000150 8a 63 b3 3e 74 bf 99 3f 94 d4 92 3d 87 d1 d0 be
       0.3503688 1.2011552 0.07169452 -0.40784857
000160 a2 0c 81 3d 05 e9 85 bf 71 25 72 3e 55 81 9c 3d
       0.06301238 -1.0461737 0.23647095 0.076418556
000170 09 80 29 3f 4a 82 07 be 4e fe 8e bf a6 7a 93 bd
       0.6621099 -0.13233295 -1.1171358 -0.07201128
000180 d3 f5 db be 40 06 11 c0 54 a8 80 be 39 12 d8 3e
       -0.42960986 -2.2660065 -0.25128424 0.42201403
000190 3c a0 54 bf 23 ad 09 be 0c 0c 96 bf 73 96 d8 3d
       -0.83057 -0.13444953 -1.1722426 0.10575571
0001a0 28 84 93 be 59 6d 19 3e 0d 35 68 bf ea 9b 63 be
       -0.28811765 0.14983119 -0.9070595 -0.22227445
0001b0 69 9a 5b be e1 67 a0 be b0 0d d0 be 55 9d a2 3d
       -0.21445622 -0.31329253 -0.40635443 0.07940165
0001c0 89 db a2 be f3 8e d6 3c 1e 08 0e 3f f5 a5 5b bf
       -0.31808117 0.02619121 0.55481136 -0.85800105
0001d0 06 21 03 bf d8 fb 84 bd a4 b4 9c 3d bb 01 ad 3f
       -0.51222265 -0.06493348 0.07651642 1.3516153
0001e0 e0 b5 6b 3e 11 2b 58 bf 73 69 65 3f 37 94 ea be
       0.23018599 -0.84440714 0.8961403 -0.45816204
0001f0 7d 93 c1 bd fc c7 fb 3e 73 a0 ba 3e 9f 6c a3 3d
       -0.09451959 0.49176013 0.36450538 0.07979702
000200 a9 62 a5 3e c8 bb cc 3e 70 ee 17 3d 9c e7 19 bf
       0.32301834 0.39987016 0.037092626 -0.6011903
000210 7a 26 1e be 60 01 17 bf 3a 49 37 3d f2 5d d1 bf
       -0.15444365 -0.58986473 0.04474757 -1.6356795
000220 69 a1 93 3e 53 ca 87 bf cd 92 e2 3e 62 8d 6b 3d
       0.28834084 -1.060862 0.44252625 0.05750788
000230 23 df ad 3d e1 dc 56 bf 23 19 8f bc f0 30 81 3f
       0.084898256 -0.83930784 -0.01746804 1.009306
000240 c2 0d 80 3f d1 3f 80 bd 46 ed 00 3f 6f 35 5a 3d
       1.0004199 -0.06262172 0.5036205 0.053273614
000250 21 b4 03 3f 89 48 ac 3d 20 58 4a bf 62 b7 7b be
       0.5144673 0.084122725 -0.7904072 -0.24581674
000260 e5 a9 6a 3d e5 24 67 be f1 c5 d9 be 7d 3a 07 bf
       0.05729093 -0.22572668 -0.4253383 -0.5282362
000270 6f 42 de 3e 03 e3 2b be 8e 0a 3b 3d 6c 51 8e be
       0.4341006 -0.16785817 0.045664363 -0.27796495
000280 fb 33 54 bf 78 99 fb 3e d1 4d 59 3f 72 52 c1 3e
       -0.82891816 0.49140525 0.84884363 0.37758213
000290 e3 e6 35 3e 79 6d f1 be 35 6f 0e 3e 32 bb 60 bf
       0.17763858 -0.47153834 0.1390961 -0.8778564
0002a0 25 3f 34 3d fc c6 d5 3e bd 26 da be 7a c1 a2 3b
       0.04400553 0.41753376 -0.4260768 0.004966912
0002b0 33 83 f1 be e4 04 67 bf 97 f2 cb 3e c4 06 19 be
       -0.4717041 -0.9024184 0.3983352 -0.14943987
0002c0 c3 35 6c bf 00 2a 22 bf b9 12 41 be 69 36 70 bd
       -0.92269534 -0.63345337 -0.18854798 -0.05864564
0002d0 89 0c 46 3f d8 70 0c c0 36 c0 c9 3c 00 bf 17 bf
       0.7736288 -2.1943874 0.024627786 -0.5927582
0002e0 37 a1 77 3f 04 a2 c2 3e f2 77 73 bf 7b 93 15 bf
       0.9673037 0.38014233 -0.951049 -0.5842816
0002f0 19 05 e3 bd fe 1b 26 3f 4d d4 1e bf c6 7d 4c be
       -0.11084957 0.6488646 -0.62042695 -0.19969854
000300 c2 72 5d 3c 61 b4 27 be fd 58 2e be c8 36 49 3e
       0.01351613 -0.16377403 -0.17026134 0.19649804
000310 f9 5c 3d be 0a fe 05 3f a7 90 33 be 05 c7 89 bd
       -0.18492498 0.5234076 -0.17535649 -0.06727413
000320 10 fc 1d bf 34 bb b6 be 17 d5 16 bf b7 9a 4e bf
       -0.6171274 -0.356897 -0.589189 -0.80704826
000330 26 da 51 3e b8 f6 5d 3f 07 43 4d bd 3b bd 87 bf
       0.20493373 0.8670459 -0.05011275 -1.0604624
000340 39 89 a3 3d 3d 20 6d be 0d e0 f4 bd 94 5d e8 3e
       0.079851575 -0.23156829 -0.11956797 0.45383894
000350 49 81 87 3e 51 53 9a 3f f1 07 a4 be 31 32 84 bf
       0.26465824 1.2056676 -0.3203731 -1.0327817
000360 fc b7 bd be 0f 4c 52 bf 4c a0 61 3f ad 39 a9 bd
       -0.3705443 -0.82147306 0.8813522 -0.08262954
000370 3c 31 ee 3d a4 b3 80 bd e4 8c e4 be 14 ac 32 be
       0.116304845 -0.06284264 -0.4463874 -0.17448455
000380 fd b7 0d bf 8a a6 58 3e 5c a6 c4 3d f1 df 93 3f
       -0.5535887 0.2115728 0.09602043 1.1552716
000390 94 84 52 be 05 cc 55 3e e5 28 98 bf 92 97 f9 3e
       -0.20558387 0.20878609 -1.188748 0.4874845
0003a0 ab 6a b2 3b e5 35 36 be 1c fa 09 bd 41 f8 71 be
       0.0054448447 -0.17793997 -0.03368579 -0.23629858
0003b0 52 a6 4a 3d e7 3f fd 3e 28 ac 44 3e 03 7c 0d be
       0.04947502 0.49462816 0.19206297 -0.13816838
0003c0 ba e6 2f bf de 7b 86 be b1 cb 97 3e bb 56 d2 bf
       -0.68711436 -0.26266378 0.29647592 -1.6432718
0003d0 c5 53 46 be df 76 7d 3f ca 1f 8e 3e 2b b6 54 3f
       -0.19367893 0.9900951 0.27758628 0.83090466
0003e0 19 c6 62 bd 87 55 a8 bf 62 ae db 3e 7d f1 0e 3e
       -0.055364702 -1.3151101 0.4290648 0.13959308
0003f0 cf f0 89 be 05 f4 d5 3e 10 3f 9b be ff 47 c1 3e
       -0.26941535 0.41787735 -0.3032155 0.3775024

backbone.4.bias f4 [64]
000000 b9 c7 68 3a f9 01 90 3d 1a 49 1f 3e d9 84 77 bd
       0.00088798587 0.07031626 0.1555523 -0.060429428
000010 64 69 74 bd 2c 78 4d 3d ec dc af bd 83 b8 91 3d
       -0.05967082 0.050163433 -0.085870594 0.07115271
000020 f7 97 21 3d 52 56 cb 3d 6d 45 03 3d dc 71 5e bc
       0.039451566 0.09928574 0.03204863 -0.013576951
000030 db 5c bd 3d e3 21 bd bd 4b 77 e9 3c 11 c3 02 3d
       0.092462264 -0.09234979 0.028499266 0.03192431
000040 ca 77 23 3c f9 af 9f 3d 99 0e d2 bb 23 1b c7 3c
       0.00997729 0.07797236 -0.0064104316 0.024304932
000050 4c 3e 87 3d ef 57 22 bd 24 4e 0a bd 08 cb 92 bd
       0.06603679 -0.03963464 -0.033765927 -0.071676314
000060 3b 19 d9 3d a4 d6 1c bb 49 75 95 bd 91 f1 ca 3d
       0.106005155 -0.0023931647 -0.07297761 0.099093564
000070 d8 a8 d1 3c 1b 4b d4 3d a3 ea c6 bd bd e3 11 bd
       0.025593206 0.10365888 -0.09712722 -0.03561758
000080 da fd fb 3b ea a4 6a 3c f5 36 b3 bb c5 66 8d bd
       0.0076901736 0.014321545 -0.005469198 -0.06904367
000090 9e 92 d3 bc 54 6e 8e bd 59 15 e6 3d f8 57 eb 3c
       -0.025826748 -0.06954637 0.112345405 0.02872847
0000a0 f6 8c 4d bd 81 cd 56 bd 9e 6a fd bd 28 b7 de 3c
       -0.05018326 -0.052442078 -0.12373851 0.027186945
0000b0 28 f2 c3 3c a6 3f 1a 3e d7 3e 60 bd 64 f4 fc bb
       0.02391918 0.15063342 -0.05474743 -0.0077195633
0000c0 ad 7f 42 bb 2e 5c 79 bc c0 98 91 bd 8c 43 47 bc
       -0.0029678151 -0.015219731 -0.07109213 -0.0121621005
0000d0 f3 49 47 bd 93 f7 b9 bc 9c 9b 5c bd e3 61 fa bc
       -0.048654508 -0.02270106 -0.05385934 -0.030564254
0000e0 d6 04 8f 3c e1 b1 76 bd a7 c3 f3 3c b4 7f 64 bc
       0.01745836 -0.060228232 0.02975638 -0.013946462
0000f0 68 c6 83 bd 4d 3b b3 bc e2 ae 4f 3c 2a 20 cc bd
       -0.06434327 -0.021878863 0.012675973 -0.09967072

backbone.5.weight f4 [64]
000000 e7 ba 8f 3f 00 c4 51 3f 0e fe 76 3f 9b a2 19 40
       1.1228913 0.819397 0.96481407 2.4005497
000010 7b 34 97 3f fb fa 8d 3f 71 de 8c 3f c7 f6 b3 3f
       1.1812891 1.1092218 1.1005384 1.4059685
000020 12 09 12 40 fe 95 3b 40 3b 2d 96 3f d2 6d 0d 40
       2.2818036 2.9310298 1.1732553 2.209828
000030 12 bc 46 3f 95 38 b9 3f 60 6c e3 3f 9c 32 82 3f
       0.7763072 1.4470392 1.7767448 1.0171695
000040 ab b2 71 3f 32 a7 9d 3f 9f ff 8d 3f 10 51 39 40
       0.9441325 1.2316649 1.1093634 2.8955727
000050 75 ca a3 3f 00 1b 09 40 7e f3 d6 3f d8 c1 dc 3f
       1.279616 2.142273 1.6793058 1.7246656
000060 f6 88 39 40 ab 0d a2 3f da 21 b1 3f 0f da 2b 3f
       2.8989844 1.2660421 1.3838456 0.67129606
000070 7a 9f 88 3f 18 8e bd 3f b7 f7 9b 3f f1 45 d1 3f
       1.0673668 1.4808989 1.2184972 1.634947
000080 0d 85 07 40 a3 84 91 3f ef df 47 3f 01 c7 bb 3f
       2.1174958 1.1368603 0.7807607 1.4670106
000090 f4 5d 05 40 d6 1f 00 40 5e 9e 75 3f 07 bd d4 3f
       2.0838594 2.001943 0.95944774 1.6620187
0000a0 69 75 30 3f f4 d8 85 3f 29 e6 89 3f f3 1b f0 3f
       0.68929154 1.0456834 1.0773364 1.875853
0000b0 e0 23 dd 3f 6a 03 01 40 81 0b 61 3f 02 6d b0 3f
       1.7276573 2.0158334 0.8790818 1.3783267
0000c0 d4 93 34 3f 8a 3f b4 3f b8 5f 60 3f c9 cd 99 3f
       0.7053807 1.408189 0.87646055 1.2015926
0000d0 6e 6d b4 3f 80 3b 39 40 73 a0 fc 3f eb a2 a4 3f
       1.4095895 2.8942566 1.9736465 1.2862219
0000e0 81 ec 80 3f f6 0a e7 3f a9 32 da 3f 33 55 ef 3f
       1.0072175 1.805022 1.704671 1.8697876
0000f0 c0 9b 40 3f d5 a2 a6 3f 48 2c 83 3f 09 7c cf 3f
       0.75237656 1.3018442 1.0247889 1.6209728

backbone.5.bias f4 [64]
000000 3d 3f 0f bf 7a 04 51 bf d6 01 42 bf d6 2c 47 3f
       -0.5595587 -0.81647456 -0.7578405 0.7780279
000010 9d d3 63 bf ca 1b e1 bf a0 18 29 bf 4d d4 8f bf
       -0.8899477 -1.7586606 -0.660532 -1.1236664
000020 44 12 2c 3f 2b 51 05 3f d4 73 b7 be 3f e4 bd 3e
       0.6721537 0.5207698 -0.35830557 0.370882
000030 df 8e 25 bf d8 a4 fd bd d3 b4 18 3f 4b 71 96 be
       -0.6467113 -0.12384957 0.59650916 -0.2938331
000040 46 28 bf 3e b9 54 cc bd ec d2 23 bf 9b cc 87 3f
       0.37335414 -0.09977097 -0.63993716 1.0609316
000050 c2 0e 0a 3f 11 f2 f3 3e 28 09 ba be 5a 32 b9 bf
       0.5392877 0.4764562 -0.3633511 -1.4468491
000060 65 34 21 3f a1 53 3d bf f8 d9 e7 39 43 3a 4d bd
       0.6297057 -0.7395573 0.00044222153 -0.05010439
000070 9a 1d 57 bf ca 06 8d bf d9 4e 08 bf 0a 35 fd be
       -0.84029543 -1.1017697 -0.5324531 -0.49454528
000080 e3 66 95 bf 24 71 a9 bf dd db 23 bf fb be 57 3b
       -1.1672024 -1.3237653 -0.6400736 0.003292023
000090 3a 3d 90 3e 02 4e 8b 3e 1c e2 40 bf 82 a2 82 bf
       0.28171712 0.27207953 -0.75345016 -1.0205843
0000a0 a0 10 33 3e dd 85 be be e2 50 48 bf 0f a2 01 c0
       0.1748681 -0.37211505 -0.7824842 -2.0255163
0000b0 de 8d 40 3d 8e 40 10 3f c4 37 2e bf 32 33 97 bf
       0.047010295 0.563485 -0.6805384 -1.1812499
0000c0 1d 56 35 3e 85 3b bc 3d d1 66 70 bf d9 55 88 bf
       0.17708631 0.0919104 -0.93906885 -1.0651199
0000d0 ab 29 34 bf 6f ac 02 3f 5a 84 b2 bf e1 94 1f bf
       -0.7037608 0.5104436 -1.394664 -0.62336546
0000e0 9c a7 6b bf 4f 5d 4d 3e 51 ca 58 bf da f9 c0 3e
       -0.92052627 0.20055126 -0.8468371 0.37690622
0000f0 ac 7d c8 be e2 14 07 3e 63 16 40 bf 9d 75 02 bf
       -0.3915838 0.1319156 -0.7503416 -0.50960714

backbone.5.running_mean f4 [64]
000000 4d 81 2c c0 8c 91 a6 c0 d8 72 12 bf 8b 7e 2f 40
       -2.695392 -5.205267 -0.5720649 2.7420986
000010 42 3f 8d c0 8e fb 7e c0 0f 94 35 c0 a0 93 93 c0
       -4.413972 -3.9841037 -2.8371618 -4.6117706
000020 b7 52 4c 40 0c 27 86 bf e1 4f d1 3f f5 1c 8e 3f
       3.1925485 -1.0480666 1.6352502 1.1102587
000030 fb b6 7d c0 c2 21 11 40 63 d5 b6 40 e9 f7 39 be
       -3.9642932 2.2676854 5.713548 -0.18160976
000040 3c 88 f5 40 de 94 c5 3f 9c 79 7c c0 18 88 07 40
       7.67288 1.5436056 -3.9449224 2.1176815
000050 07 43 16 41 c7 e7 8a 40 bd 86 b6 bf 7e 53 8e bf
       9.391364 4.340793 -1.4259869 -1.111923
000060 13 17 b3 3f 47 ff 0a c1 69 28 c8 3d 05 cb 98 40
       1.3991417 -8.687324 0.097733326 4.7747827
000070 ca d1 49 c1 d1 02 dc 3f 14 b4 bb bf ba 8f df be
       -12.613718 1.718836 -1.466433 -0.43664342
000080 7c 15 5e c0 df e1 91 c0 3c e3 85 c0 43 85 ae 3f
       -3.4700613 -4.558822 -4.1839886 1.3634418
000090 c2 61 d3 3e 84 e8 eb 3f ec e8 33 c0 d6 42 2a c0
       0.4128552 1.8430333 -2.8110914 -2.6603293
0000a0 35 b2 87 40 73 d3 cc bf ec fc 6a c0 ca 54 38 c0
       4.240504 -1.6002029 -3.6716871 -2.880175
0000b0 d1 aa f5 bf 19 2a b3 40 43 d4 a3 3e 73 16 1c c1
       -1.9192754 5.598889 0.3199788 -9.755481
0000c0 5d 3b 8f 40 45 d8 15 40 9c db 9f c0 c5 68 a9 c0
       4.4759965 2.341325 -4.995558 -5.2940392
0000d0 4c e8 c0 bf 04 cd 50 be 7d 3e 95 c0 e5 c6 4c c0
       -1.5070891 -0.20390707 -4.663878 -3.1996396
0000e0 89 ad 7b c1 bb 3e 9d 40 1b 36 6a c0 c7 d0 57 40
       -15.729867 4.9139075 -3.6595523 3.3721178
0000f0 d3 eb d2 bf 3a 0a 92 40 3f 3b 16 c0 ec d8 d4 bf
       -1.6478218 4.5637484 -2.347366 -1.6628699

backbone.5.running_var f4 [64]
000000 4f 53 9d 41 18 31 ad 41 9e 90 43 41 fa 52 08 42
       19.665678 21.648972 12.222807 34.08103
000010 e7 0a 9d 41 09 b0 2a 41 08 89 74 41 ba 56 69 41
       19.630323 10.667977 15.283455 14.5836735
000020 d7 ac 3a 42 33 b4 91 41 1c 84 c6 41 88 8a a6 41
       46.66879 18.212988 24.814507 20.817642
000030 a0 de 91 41 df 75 5b 42 af 87 dc 42 34 a2 df 41
       18.233704 54.86511 110.26501 27.9542
000040 78 c6 ea 42 68 26 36 42 70 fd bd 41 51 43 19 42
       117.387634 45.537506 23.748749 38.31574
000050 5b 0a 10 43 8e 05 8a 42 a1 42 97 41 8f 06 2e 40
       144.04045 69.01085 18.907534 2.7191503
000060 34 97 00 42 3a e7 86 42 f9 d9 db 41 f4 d5 6d 42
       32.14766 67.451614 27.481432 59.45894
000070 06 e2 b0 42 7d 8c 8c 3f 81 b1 8b 41 72 c3 77 41
       88.44145 1.0980374 17.461672 15.485216
000080 73 cb 54 41 cb 01 75 41 c5 9b ab 41 11 8f 0c 42
       13.29967 15.312938 21.45106 35.139713
000090 67 b8 d8 41 b1 79 0e 42 fd 43 6d 41 b2 f4 a6 41
       27.09004 35.61884 14.829099 20.86948
0000a0 6b bb 3e 42 ea b9 8e 41 f1 a7 97 41 b9 7e 9e 40
       47.683025 17.840778 18.957003 4.952969
0000b0 7c 87 82 41 49 26 8c 42 2b 3f 4d 41 36 1b 7d 42
       16.316154 70.074776 12.827922 63.276573
0000c0 84 f9 32 42 00 38 76 42 6d d9 a0 41 24 a1 05 42
       44.743668 61.554688 20.106165 33.407364
0000d0 6f 10 50 41 8a 47 83 41 8b b8 5d 41 23 40 c5 41
       13.004012 16.409931 13.857554 24.656317
0000e0 02 72 10 43 11 72 8a 42 d0 ad 52 41 c6 71 57 42
       144.44534 69.222786 13.167435 53.861107
0000f0 bf 26 a0 41 20 ea 14 42 bd b6 83 41 12 5f 89 41
       20.018919 37.228638 16.464228 17.171421

backbone.8.weight f4 [32, 64]
000000 4c bc 44 3f fa 1a ca 3f 3a 64 20 3c f4 f5 57 be
       0.7684982 1.5789483 0.009789521 -0.21089917
000010 87 a0 3e be c5 5b b8 3f 36 ff 2e bf 0e 87 69 3e
       -0.18615924 1.4403006 -0.6835817 0.22805426
000020 6e d7 60 be 83 ab d7 bd bc 52 89 be 9a 12 92 3e
       -0.2195718 -0.1053076 -0.26820934 0.28529817
000030 62 e9 03 3f 83 7e dc bd 4e d6 aa bd dc ea 1e bd
       0.5152799 -0.10766318 -0.083416566 -0.038798198
000040 68 a8 4b 3e 38 d3 34 bf 45 9e 25 be 5e 1d a1 3d
       0.1988846 -0.70634794 -0.16173656 0.078669295
000050 fd 50 bc 3d 5c d1 a1 3d 6a 46 1b bd 56 02 c4 3c
       0.09195135 0.0790126 -0.03790895 0.023926895
000060 98 34 22 3e b3 12 89 be 4e d8 33 be 47 b2 43 bf
       0.15840375 -0.2677208 -0.17562982 -0.76443905
000070 da ab a4 3e 27 82 2e bf 71 41 28 be 84 8d f5 3d
       0.32162362 -0.68167347 -0.16431214 0.119898826
000080 45 72 10 be d1 9d 01 3f ed 7e a0 3f 32 74 42 be
       -0.1410609 0.50631434 1.2538735 -0.18989637
000090 49 35 45 be fc dc c0 3c 8c ab 7d 3f d6 a5 1c 3e
       -0.19258608 0.023542874 0.99089885 0.15297636
0000a0 e8 32 29 be a4 28 43 3e 3c c5 15 3f f3 22 3f 3f
       -0.16523325 0.19058472 0.5850408 0.74662703
0000b0 9a 7d 93 3e b5 bc 01 3e ce d3 c9 bd 87 ac 60 bf
       0.28806764 0.12669642 -0.09854852 -0.87763256
0000c0 cc fa 08 bf 24 5d 25 bf c1 9a c9 3f 28 02 3a bf
       -0.53507686 -0.64595246 1.5750352 -0.7265954
0000d0 05 65 70 3f cc 03 8b 3d 1c 74 03 3e 3b ce 55 be
       0.93904144 0.067878336 0.12837261 -0.20879452
0000e0 58 1a 62 3f aa 8e c3 be fb 03 0e 3e 6c c9 df be
       0.8832145 -0.38194782 0.13868706 -0.4370836
0000f0 c9 00 78 3e a2 80 2c 3e b8 94 8d 3e 06 35 cd 3d
       0.2421905 0.16845945 0.27652526 0.10019879
000100 97 b4 14 bf 6d 88 c6 bf 45 1c 11 3f 5e b4 c0 3e
       -0.5808806 -1.5510384 0.5668376 0.3763761
000110 95 5a 6d 3e 69 d9 f2 bd 50 70 23 3f bf 4a b4 be
       0.23179086 -0.11857874 0.6384325 -0.35213277
000120 01 70 1f 3f eb b1 d8 3e 1a 8d 97 3f 73 30 a1 3e
       0.6228028 0.4232324 1.1839936 0.31482276
000130 20 fc 79 bf 7a ec 9c be cf 8a 55 bd 08 19 4d 3f
       -0.9765034 -0.30649167 -0.05213433 0.8011632
000140 fa 2b 12 be 83 f8 ae 3f 74 eb ad 3d 91 ae 80 3e
       -0.14274588 1.366959 0.08492175 0.25133184
000150 2e 2f ad be 35 c0 4c 3e 3d 4b 2c 3f d6 23 80 be
       -0.33825058 0.19995196 0.67302305 -0.2502734
000160 1b c1 46 be 0d 01 81 bf 49 70 1c 3f e1 ce 14 3f
       -0.19409601 -1.0078446 0.61108834 0.5812817
000170 7f e9 02 c0 e7 cf 11 bf bc 29 88 3f bb f6 bd 3e
       -2.0455015 -0.5695786 1.0637736 0.37102303
000180 3a e8 fe bd 9e 56 28 be 61 bc a5 bf 36 61 34 bf
       -0.124466375 -0.16439292 -1.2948114 -0.7046083
000190 40 39 b3 3d 9f 98 1e 3e c9 6a 33 bf d8 66 87 3f
       0.08751154 0.15487908 -0.70084816 1.057826
0001a0 e8 a2 15 bf 20 dc 7f bf 7c 08 3a bf 37 2f b8 bd
       -0.584517 -0.9994526 -0.72669196 -0.089933805
0001b0 0e f7 ee 3d 75 10 e7 bd 3a b4 ba 3c 41 3f 09 bf
       0.11668216 -0.11282436 0.022791017 -0.5361214
0001c0 27 2d 20 3e 53 14 56 3f f3 3f 96 bf fc f9 04 3f
       0.15642224 0.8362476 -1.1738266 0.51943946
0001d0 16 40 e3 3f 0f 7d 16 3f c3 c6 02 be d1 35 15 3d
       1.7753932 0.58784574 -0.12771134 0.036428276
0001e0 fc d1 f2 bf 17 10 d8 3e 6d 56 1c be cf 24 fa 3e
       -1.8970332 0.42199776 -0.15267344 0.48856208
0001f0 f1 5d 44 bf 85 3a 20 bd 68 73 86 bf 28 88 57 3f
       -0.76705843 -0.03911831 -1.0503969 0.8419213
000200 e6 eb 3f bf 8a 62 8e be 11 4b 49 3d bb b0 43 bd
       -0.7496933 -0.27809554 0.049143855 -0.047775965
000210 5e 75 67 bf b9 e0 d9 3f 9a 96 c7 bf eb b9 43 3f
       -0.90413463 1.7021705 -1.5592835 0.76455563
000220 35 5f 29 bd 5c 81 0b be f3 33 20 3e 9e f9 c2 3e
       -0.041350562 -0.13623565 0.15644817 0.38081068
000230 f8 47 e0 be 5c c6 75 be e2 04 9c 3d 70 5b b5 bd
       -0.43804908 -0.2400145 0.07618119 -0.08855331
000240 29 01 ca 3d 5d 31 4f be 15 aa 2a bf c7 e6 96 be
       0.098635025 -0.20233674 -0.66665775 -0.29472944
000250 b8 4e f7 bd 68 20 b5 3e d3 f3 51 be 40 2e 9b 3e
       -0.12075561 0.35376287 -0.20503168 0.30308723
000260 cd e8 90 be a3 ca 23 be ce e7 e2 be 4a dd ee 3d
       -0.28302613 -0.15995269 -0.44317478 0.11663301
000270 6a d6 97 3e dc 2e ac bd 70 f7 60 bf 6f 07 92 be
       0.29655772 -0.08407375 -0.8787756 -0.28521296
000280 01 13 bf 3e 29 52 6e 3f 4b 07 ec be b7 56 d9 be
       0.37319186 0.93094116 -0.46099314 -0.4244897
000290 9f 58 ce 3e a5 09 c4 3e 3c f0 27 bf 8b ee 18 bf
       0.40301988 0.38288608 -0.65600944 -0.5973899
0002a0 41 9f 90 bd a1 48 37 bf fb a6 87 bf 00 99 46 3f
       -0.07061625 -0.715952 -1.0597833 0.7757721
0002b0 bd f5 93 3f 58 df 05 3e a2 6d 95 39 36 02 bf be
       1.1559368 0.1307348 0.00028501177 -0.37306374
0002c0 c7 2a db 3d 81 5e b1 bd dc 27 33 bf 98 72 3c be
       0.107015185 -0.08660603 -0.69982696 -0.18403089
0002d0 fa ff 39 bf 98 87 03 be 48 c8 b0 bb e7 ab 60 bf
       -0.72656214 -0.12844694 -0.005394969 -0.877623
0002e0 5f 3e cb be b9 d8 43 3d 75 90 49 3e 59 55 94 bd
       -0.39696023 0.047814105 0.19684012 -0.07242841
0002f0 b7 dc 91 bf f3 c4 cd 3e 1f e5 16 bf 6c ed 08 bf
       -1.1395482 0.40189323 -0.5894336 -0.5348728
000300 7b 3b 4a be 96 ec b2 bf 31 be 86 3e a5 44 d8 3d
       -0.19749252 -1.397845 0.2631698 0.10559968
000310 fe 58 59 3f 35 a9 e7 3f 4b f6 9b 3f 0d 24 cf 3e
       0.84901416 1.8098513 1.2184538 0.40457192
000320 2b 47 45 3e 94 44 97 3e 8e 0d cc be bc 8e 00 3d
       0.1926543 0.29544508 -0.3985409 0.031386122
000330 f2 89 87 bf 44 e3 c4 bf 88 19 d4 3f f0 d3 fc be
       -1.0588973 -1.5381856 1.6570292 -0.49380445
000340 34 1c a5 3f 32 5a 25 3f ab 78 8c 3f 50 59 ca 3e
       1.2899232 0.6459075 1.0974325 0.39521265
000350 5c a9 a7 3f 6f 51 56 3e 4b e6 ec 3f b8 c5 df 3d
       1.3098559 0.20929502 1.850778 0.10926384
000360 3b 1f 2e bf a3 59 2a 3f d6 e8 f0 3f de 90 85 3e
       -0.68016404 0.66543025 1.8821056 0.26087087
000370 a0 2c 53 40 87 13 94 bf 83 3e b9 3f 30 22 c6 3f
       3.2995987 -1.1568459 1.4472202 1.5479183
000380 95 5e 12 be 8c 42 14 40 42 85 c8 bf 61 3c 2d 3f
       -0.14293893 2.3165617 -1.5665667 0.67670256
000390 20 7e 9b 3e 49 20 56 bf 10 07 7a be be 7c 56 40
       0.30369663 -0.83643013 -0.24416757 3.3513637
0003a0 a2 f3 f6 3f 46 31 81 bf 63 17 9d be 86 38 85 3e
       1.9293101 -1.0093162 -0.30681905 0.26019686
0003b0 31 a3 06 3f 3d 45 0c bf 4e 84 40 be 44 bd 1e 40
       0.5259276 -0.5479315 -0.1880047 2.4803019
0003c0 58 18 fb 3f da 7f 1c 3f 3d ec 8f bf 41 70 2e 40
       1.9616804 0.61132586 -1.1243969 2.7256014
0003d0 8f 64 3d 40 49 e8 05 3f d1 7a f1 3c 69 77 4f 3f
       2.9592626 0.52307564 0.029477509 0.8104158
0003e0 0c c6 9d 3d d3 3d 96 3e a8 20 08 3d ea c6 fd 3e
       0.0770379 0.29344043 0.03323427 0.49565822
0003f0 c4 5c 68 bf 86 02 1b bf a9 18 84 3f fd f7 09 40
       -0.9076655 -0.60550725 1.0320026 2.155761

backbone.8.bias f4 [32]
000000 15 88 c5 bd de 20 59 3e 80 f3 0e bd 12 63 e7 bc
       -0.09645096 0.21203944 -0.03490019 -0.028245483
000010 5d c6 2c 3e 58 89 25 3e a2 6f b5 3c 9a 8d b1 3d
       0.16872545 0.16165674 0.022147957 0.086695865
000020 a7 21 0c bc c1 e4 1e 3e a4 da 32 bd 5e 57 a9 bd
       -0.008552945 0.1551695 -0.043665543 -0.08268617
000030 d9 23 f1 3c e7 8d b1 3e 17 f4 f8 3d ec 99 d1 3d
       0.029436039 0.34678575 0.121559314 0.102344364
000040 d1 f4 43 bc 6a 59 38 3e 0d ac 42 3e 3d e2 e9 3d
       -0.011960224 0.18002859 0.19010945 0.11420105
000050 72 0a 64 3d 12 fd 7a 3e 5c f5 28 bd 3b 17 b2 3d
       0.055674024 0.24510601 -0.041249618 0.08695837
000060 0c 12 23 3d 5f 42 93 bd a7 da a6 3d 15 26 0e be
       0.039812133 -0.07190394 0.081471734 -0.13881715
000070 d6 86 35 3e 75 49 80 bd 0f 0d 33 3e 42 be 70 bc
       0.17727217 -0.06264011 0.1748545 -0.0146937985

backbone.9.weight f4 [32]
000000 6e 87 c6 3f fa 5a 8c 3f 80 88 d1 3f 8a 4d fa 3f
       1.551008 1.0965264 1.6369781 1.9554913
000010 d9 95 b6 3f f7 fb e5 3f 1b 11 de 3f 38 d7 d5 3f
       1.426448 1.7967519 1.734897 1.6706305
000020 6b a5 70 3f 6d ff 9c 3f 2b 37 a6 3f 82 17 a1 3f
       0.9400241 1.226545 1.2985586 1.2585299
000030 f3 82 c1 3f 62 74 3d 3f 50 6a 59 3f 69 f8 5f 3f
       1.5118088 0.7400571 0.84927845 0.8748842
000040 8d 9b a3 3f 80 27 ba 3f cf e3 cd 3f 5d 97 d2 3f
       1.2781845 1.4543304 1.6085147 1.6452442
000050 4f 85 a8 3f 42 b4 6f 3f ef a4 f8 3f 6f 9b e4 3f
       1.3165683 0.93634427 1.9425334 1.7859935
000060 7d 06 5a 3f b9 81 ba 3f 23 21 eb 3f cd 9e aa 3f
       0.8516615 1.4570838 1.8369488 1.3329712
000070 1b 42 7f 3f 0e 11 ae 3f b7 7b a0 3f be 1f 80 3f
       0.99710244 1.3598955 1.2537755 1.0009687

backbone.9.bias f4 [32]
000000 5a ed d9 bb 9b 64 1b 3f 0d 59 c8 3d f3 61 d6 3e
       -0.006650609 0.60700387 0.0978261 0.41871604
000010 47 52 ec 3e d7 79 d1 be f4 fb 91 be 81 1c 1a bf
       0.46156523 -0.4091327 -0.28512537 -0.60199744
000020 ae cd 18 3f 21 a1 28 3f f7 11 b0 be 88 1d 22 3f
       0.5968884 0.65870863 -0.34388706 0.6332631
000030 99 e3 74 be f1 4b d9 3e ec 47 cc 3e 3f ac 06 3f
       -0.23914947 0.4244075 0.39898622 0.52606577
000040 2f db f9 be fb b7 b8 3d 15 92 a0 be a0 66 c1 3e
       -0.48800036 0.090194665 -0.31361452 0.3777361
000050 49 eb c6 be 4b cc 22 3f 87 b3 29 bf 2b 8d a3 be
       -0.38851383 0.63592976 -0.6628956 -0.3194364
000060 c3 78 c9 3e 9d 21 af 3e 83 ce 08 bf 26 54 56 be
       0.39349946 0.34205332 -0.5344011 -0.20930538
000070 94 13 d1 3e a2 b3 b6 be 14 b2 35 3f 4b ed c5 3e
       0.4083525 -0.35683924 0.7097485 0.38657603

backbone.9.running_mean f4 [32]
000000 6e 09 09 bf 55 bc a7 40 73 50 de bf 15 2c 33 41
       -0.53530014 5.2417397 -1.7368301 11.198262
000010 54 d9 de 3e 95 78 cf bd f8 e2 8f bf 31 6e be c0
       0.43525183 -0.10130421 -1.124114 -5.950951
000020 2c d6 f0 40 72 70 84 40 e8 51 f8 bf d4 5b 02 41
       7.526144 4.138726 -1.9399996 8.147419
000030 9c 33 6a c0 63 eb 74 40 4f 6b 62 41 46 77 fe 40
       -3.6594 3.8268669 14.151198 7.9520597
000040 21 af 53 c0 9c e8 27 c0 cd 8e 34 be 1f 0b 64 40
       -3.307564 -2.6235723 -0.17632599 3.5631788
000050 f3 20 50 c0 e9 9d 32 41 17 c8 09 c0 70 70 42 be
       -3.252011 11.163552 -2.1528375 -0.18988204
000060 51 ef 43 41 f9 3b 2b 40 9d 4b c7 bf c5 88 44 40
       12.245927 2.6755354 -1.556995 3.0708477
000070 51 a2 29 40 e2 7b 19 c0 1c 51 c2 40 71 3d 36 41
       2.650532 -2.3981862 6.072401 11.39
